…
am","name":"stdout","text":["Model: \"model_2\"\n","__________________________________________________________________________________________________\n"," Layer (type)                   Output Shape         Param #     Connected to                     \n","==================================================================================================\n"," input_3 (InputLayer)           [(None, 32, 32, 3)]  0           []                               \n","                                                                                                  \n"," data_augmentation (Sequential)  (None, 72, 72, 3)   7           ['input_3[0][0]']                \n","                                                                                                  \n"," patches_5 (Patches)            (None, None, 108)    0           ['data_augmentation[0][0]']      \n","                                                                                                  \n"," patch_encoder_2 (PatchEncoder)  (None, 144, 64)     16192       ['patches_5[0][0]']              \n","                                                                                                  \n"," layer_normalization_34 (LayerN  (None, 144, 64)     128         ['patch_encoder_2[0][0]']        \n"," ormalization)                                                                                    \n","                                                                                                  \n"," multi_head_attention_16 (Multi  (None, 144, 64)     66368       ['layer_normalization_34[0][0]', \n"," HeadAttention)                                                   'layer_normalization_34[0][0]'] \n","                                                                                                  \n"," add_32 (Add)                   (None, 144, 64)      0           ['multi_head_attention_16[0][0]',\n","                                                                  'patch_encoder_2[0][0]']        \n","                                                                                                  \n"," layer_normalization_35 (LayerN  (None, 144, 64)     128         ['add_32[0][0]']                 \n"," ormalization)                                                                                    \n","                                                                                                  \n"," dense_41 (Dense)               (None, 144, 128)     8320        ['layer_normalization_35[0][0]'] \n","                                                                                                  \n"," dropout_38 (Dropout)           (None, 144, 128)     0           ['dense_41[0][0]']               \n","                                                                                                  \n"," dense_42 (Dense)               (None, 144, 64)      8256        ['dropout_38[0][0]']             \n","                                                                                                  \n"," dropout_39 (Dropout)           (None, 144, 64)      0           ['dense_42[0][0]']               \n","                                                                                                  \n"," add_33 (Add)                   (None, 144, 64)      0           ['dropout_39[0][0]',             \n","                                                                  'add_32[0][0]']                 \n","                                                                                                  \n"," layer_normalization_36 (LayerN  (None, 144, 64)     128         ['add_33[0][0]']                 \n"," ormalization)                                                                                    \n","                                                                                                  \n"," multi_head_attention_17 (Multi  (None, 144, 64)     66368       ['layer_normalization_36[0][0]', \n"," HeadAttention)                                                   'layer_normalization_36[0][0]'] \n","                                                                                                  \n"," add_34 (Add)                   (None, 144, 64)      0           ['multi_head_attention_17[0][0]',\n","                                                                  'add_33[0][0]']                 \n","                                                                                                  \n"," layer_normalization_37 (LayerN  (None, 144, 64)     128         ['add_34[0][0]']                 \n"," ormalization)                                                                                    \n","                                                                                                  \n"," dense_43 (Dense)               (None, 144, 128)     8320        ['layer_normalization_37[0][0]'] \n","                                                                                                  \n"," dropout_40 (Dropout)           (None, 144, 128)     0           ['dense_43[0][0]']               \n","                                                                                                  \n"," dense_44 (Dense)               (None, 144, 64)      8256        ['dropout_40[0][0]']             \n","                                                                                                  \n"," dropout_41 (Dropout)           (None, 144, 64)      0           ['dense_44[0][0]']               \n","                                                                                                  \n"," add_35 (Add)                   (None, 144, 64)      0           ['dropout_41[0][0]',             \n","                                                                  'add_34[0][0]']                 \n","                                                                                                  \n"," layer_normalization_38 (LayerN  (None, 144, 64)     128         ['add_35[0][0]']                 \n"," ormalization)                                                                                    \n","                                                                                                  \n"," multi_head_attention_18 (Multi  (None, 144, 64)     66368       ['layer_normalization_38[0][0]', \n"," HeadAttention)                                                   'layer_normalization_38[0][0]'] \n","                                                                                                  \n"," add_36 (Add)                   (None, 144, 64)      0           ['multi_head_attention_18[0][0]',\n","                                                                  'add_35[0][0]']                 \n","                                                                                                  \n"," layer_normalization_39 (LayerN  (None, 144, 64)     128         ['add_36[0][0]']                 \n"," ormalization)                                                                                    \n","                                                                                                  \n"," dense_45 (Dense)               (None, 144, 128)     8320        ['layer_normalization_39[0][0]'] \n","                                                                                                  \n"," dropout_42 (Dropout)           (None, 144, 128)     0           ['dense_45[0][0]']               \n","                                                                                                  \n"," dense_46 (Dense)               (None, 144, 64)      8256        ['dropout_42[0][0]']             \n","                                                                                                  \n"," dropout_43 (Dropout)           (None, 144, 64)      0           ['dense_46[0][0]']               \n","                                                                                                  \n"," add_37 (Add)                   (None, 144, 64)      0           ['dropout_43[0][0]',             \n","                                                                  'add_36[0][0]']                 \n","                                                                                                  \n"," layer_normalization_40 (LayerN  (None, 144, 64)     128         ['add_37[0][0]']                 \n"," ormalization)                                                                                    \n","                                                                                                  \n"," multi_head_attention_19 (Multi  (None, 144, 64)     66368       ['layer_normalization_40[0][0]', \n"," HeadAttention)                                                   'layer_normalization_40[0][0]'] \n","                                                                                                  \n"," add_38 (Add)                   (None, 144, 64)      0           ['multi_head_attention_19[0][0]',\n","                                                                  'add_37[0][0]']                 \n","                                                                                                  \n"," layer_normalization_41 (LayerN  (None, 144, 64)     128         ['add_38[0][0]']                 \n"," ormalization)                                                                                    \n","                                                                                                  \n"," dense_47 (Dense)               (None, 144, 128)     8320        ['layer_normalization_41[0][0]'] \n","                                                                                                  \n"," dropout_44 (Dropout)           (None, 144, 128)     0           ['dense_47[0][0]']               \n","                                                                                                  \n"," dense_48 (Dense)               (None, 144, 64)      8256        ['dropout_44[0][0]']             \n","                                                                                                  \n"," dropout_45 (Dropout)           (None, 144, 64)      0           ['dense_48[0][0]']               \n","                                                                                                  \n"," add_39 (Add)                   (None, 144, 64)      0           ['dropout_45[0][0]',             \n","                                                                  'add_38[0][0]']                 \n","                                                                                                  \n"," layer_normalization_42 (LayerN  (None, 144, 64)     128         ['add_39[0][0]']                 \n"," ormalization)                                                                                    \n","                                                                                                  \n"," multi_head_attention_20 (Multi  (None, 144, 64)     66368       ['layer_normalization_42[0][0]', \n"," HeadAttention)                                                   'layer_normalization_42[0][0]'] \n","                                                                                                  \n"," add_40 (Add)                   (None, 144, 64)      0           ['multi_head_attention_20[0][0]',\n","                                                                  'add_39[0][0]']                 \n","                                                                                                  \n"," layer_normalization_43 (LayerN  (None, 144, 64)     128         ['add_40[0][0]']                 \n"," ormalization)                                                                                    \n","                                                                                                  \n"," dense_49 (Dense)               (None, 144, 128)     8320        ['layer_normalization_43[0][0]'] \n","                                                                                                  \n"," dropout_46 (Dropout)           (None, 144, 128)     0           ['dense_49[0][0]']               \n","                                                                                                  \n"," dense_50 (Dense)               (None, 144, 64)      8256        ['dropout_46[0][0]']             \n","                                                                                                  \n"," dropout_47 (Dropout)           (None, 144, 64)      0           ['dense_50[0][0]']               \n","                                                                                                  \n"," add_41 (Add)                   (None, 144, 64)      0           ['dropout_47[0][0]',             \n","                                                                  'add_40[0][0]']                 \n","                                                                                                  \n"," layer_normalization_44 (LayerN  (None, 144, 64)     128         ['add_41[0][0]']                 \n"," ormalization)                                                                                    \n","                                                                                                  \n"," multi_head_attention_21 (Multi  (None, 144, 64)     66368       ['layer_normalization_44[0][0]', \n"," HeadAttention)                                                   'layer_normalization_44[0][0]'] \n","                                                                                                  \n"," add_42 (Add)                   (None, 144, 64)      0           ['multi_head_attention_21[0][0]',\n","                                                                  'add_41[0][0]']                 \n","                                                                                                  \n"," layer_normalization_45 (LayerN  (None, 144, 64)     128         ['add_42[0][0]']                 \n"," ormalization)                                                                                    \n","                                                                                                  \n"," dense_51 (Dense)               (None, 144, 128)     8320        ['layer_normalization_45[0][0]'] \n","                                                                                                  \n"," dropout_48 (Dropout)           (None, 144, 128)     0           ['dense_51[0][0]']               \n","                                                                                                  \n"," dense_52 (Dense)               (None, 144, 64)      8256        ['dropout_48[0][0]']             \n","                                                                                                  \n"," dropout_49 (Dropout)           (None, 144, 64)      0           ['dense_52[0][0]']               \n","                                                                                                  \n"," add_43 (Add)                   (None, 144, 64)      0           ['dropout_49[0][0]',             \n","                                                                  'add_42[0][0]']                 \n","                                                                                                  \n"," layer_normalization_46 (LayerN  (None, 144, 64)     128         ['add_43[0][0]']                 \n"," ormalization)                                                                                    \n","                                                                                                  \n"," multi_head_attention_22 (Multi  (None, 144, 64)     66368       ['layer_normalization_46[0][0]', \n"," HeadAttention)                                                   'layer_normalization_46[0][0]'] \n","                                                                                                  \n"," add_44 (Add)                   (None, 144, 64)      0           ['multi_head_attention_22[0][0]',\n","                                                                  'add_43[0][0]']                 \n","                                                                                                  \n"," layer_normalization_47 (LayerN  (None, 144, 64)     128         ['add_44[0][0]']                 \n"," ormalization)                                                                                    \n","                                                                                                  \n"," dense_53 (Dense)               (None, 144, 128)     8320        ['layer_normalization_47[0][0]'] \n","                                                                                                  \n"," dropout_50 (Dropout)           (None, 144, 128)     0           ['dense_53[0][0]']               \n","                                                                                                  \n"," dense_54 (Dense)               (None, 144, 64)      8256        ['dropout_50[0][0]']             \n","                                                                                                  \n"," dropout_51 (Dropout)           (None, 144, 64)      0           ['dense_54[0][0]']               \n","                                                                                                  \n"," add_45 (Add)                   (None, 144, 64)      0           ['dropout_51[0][0]',             \n","                                                                  'add_44[0][0]']                 \n","                                                                                                  \n"," layer_normalization_48 (LayerN  (None, 144, 64)     128         ['add_45[0][0]']                 \n"," ormalization)                                                                                    \n","                                                                                                  \n"," multi_head_attention_23 (Multi  (None, 144, 64)     66368       ['layer_normalization_48[0][0]', \n"," HeadAttention)                                                   'layer_normalization_48[0][0]'] \n","                                                                                                  \n"," add_46 (Add)                   (None, 144, 64)      0           ['multi_head_attention_23[0][0]',\n","                                                                  'add_45[0][0]']                 \n","                                                                                                  \n"," layer_normalization_49 (LayerN  (None, 144, 64)     128         ['add_46[0][0]']                 \n"," ormalization)                                                                                    \n","                                                                                                  \n"," dense_55 (Dense)               (None, 144, 128)     8320        ['layer_normalization_49[0][0]'] \n","                                                                                                  \n"," dropout_52 (Dropout)           (None, 144, 128)     0           ['dense_55[0][0]']               \n","                                                                                                  \n"," dense_56 (Dense)               (None, 144, 64)      8256        ['dropout_52[0][0]']             \n","                                                                                                  \n"," dropout_53 (Dropout)           (None, 144, 64)      0           ['dense_56[0][0]']               \n","                                                                                                  \n"," add_47 (Add)                   (None, 144, 64)      0           ['dropout_53[0][0]',             \n","                                                                  'add_46[0][0]']                 \n","                                                                                                  \n"," layer_normalization_50 (LayerN  (None, 144, 64)     128         ['add_47[0][0]']                 \n"," ormalization)                                                                                    \n","                                                                                                  \n"," flatten_2 (Flatten)            (None, 9216)         0           ['layer_normalization_50[0][0]'] \n","                                                                                                  \n"," dropout_54 (Dropout)           (None, 9216)         0           ['flatten_2[0][0]']              \n","                                                                                                  \n"," dense_57 (Dense)               (None, 2048)         18876416    ['dropout_54[0][0]']             \n","                                                                                                  \n"," dropout_55 (Dropout)           (None, 2048)         0           ['dense_57[0][0]']               \n","                                                                                                  \n"," dense_58 (Dense)               (None, 1024)         2098176     ['dropout_55[0][0]']             \n","                                                                                                  \n"," dropout_56 (Dropout)           (None, 1024)         0           ['dense_58[0][0]']               \n","                                                                                                  \n"," dense_59 (Dense)               (None, 2)            2050        ['dropout_56[0][0]']             \n","                                                                                                  \n","==================================================================================================\n","Total params: 21,658,569\n","Trainable params: 21,658,562\n","Non-trainable params: 7\n","__________________________________________________________
…
